model.pt (torch_old, 7568 bytes, 5 tensors)

fc1.weight f4 [32, 33]
00000000: f7e3 a93d 4d08 013e b905 02be 54c0 c0bd
00000010: 9397 c4bb f0f2 63bd 83e3 d0bc 39eb e0bc
00000020: 6055 a6bd fb89 3d3e fef0 a53d f8c8 303e
00000030: ab9e e0bd 30a9 133e e4ec 65bb 8872 f6bd
00000040: f43d b2bd 2c49 f83d 550b 603d 169d 01be
00000050: b680 2b3d 41ae 2a3e 3b33 673d ee71 1dbd
00000060: dd0b 5c3d 31df 27be 0b99 fe3d 0b97 8dbd
00000070: 9abe 0bbe bac4 47bc 2540 ba3a 3657 a5bd
00000080: 222f d03c d90e 4bbd 7fae 723d 601a 363c
00000090: 161b 27be 3916 6f3c 3f34 38bd 5df2 0abe
000000a0: f215 a4bd 565d 403d 52a1 9c3d a681 4cbd
000000b0: 2052 e8bd 24bb e83b 606b 51bd 65fb 00bd
000000c0: 419b 2abd e83f 4ebd c3ee 18bd e747 303e
000000d0: 224c ed3d 0b39 ed3c 7ff2 e0bd 74a9 cfbd
000000e0: c9d5 d93d cd30 ff3d 1cc0 3a3d 9bf1 a63c
000000f0: b92b ff3d a76c eb3d 5cd4 78bd a60e 1e3d
00000100: a446 d2bd 9661 f93d 4691 be3c 362c 853b
00000110: 9f36 2abd 367b 473d 45fa 0ebe 4b0b 163e
00000120: 43d5 033e 5123 35be 9e3f 8cbc 9fd9 023d
00000130: ef25 dbbd 4cf0 77bd 94ce 083e 8aac b93d
00000140: 5cf1 95bd fed3 e9bd 7edf 2dbd 2552 13be
00000150: 4cbc a83d 03a1 46bd d411 3ebe a2ef 25be
00000160: 4f09 1f3e fb96 33bd 6088 5fbd 7e52 00be
00000170: 51f6 fdbb e56f 293e 443e f13d 9865 86bd
00000180: 5e4f 283e 1ed8 6a3d 9eff 0cbd ede9 84bd
00000190: 5139 863d 6824 06be 9bed 343e 56a7 05be
000001a0: 970a ae3d f3c0 cfbd 912c 2c3d c3c7 26be
000001b0: 01d7 9fbd a659 ad3d 757f c8bd 1cb5 163d
000001c0: 1d02 38be f369 32be 919f 2c3c 55e6 3d3d
000001d0: 06de 48bc 1a0f 183e d972 123e dea9 0d3e
000001e0: eec5 31be c784 c7bd 2a12 afbb ec82 19bd
000001f0: fd35 dcbd dfd5 c33d eb41 0b3d 7ef3 e53c
00000200: a215 b0bd 3a69 35bd 6fd2 1e3e 8269 e0bd
00000210: 7774 203d 4e36 f23d 1dbb ca3c dd12 d3bd
00000220: 39e4 323d 2882 91bd affb b73c f8c3 05bd
00000230: b66f 053e b491 8c3d f6d5 7a3c 9f3e 503d
00000240: 36ee 113e 7bac 0bbe 4f50 8c3c 2651 a8bc
00000250: bd14 163d 2b24 0fbe 2951 43bd a3c9 db3d
00000260: d34a 2bbe db14 f8bd 829c 783c 9d4d dabb
00000270: 2ed1 03bd 007d 01bd 4b01 3ebd 6589 0f3e
00000280: f4e6 8ebd 09d0 cbbd 5575 283d 0075 eb3c
00000290: bf42 e6bd cd3b 623d 1a07 f13c cda7 acbc
000002a0: 27df 2e3e bc0b a73d 5622 dbbd cddd 343d
000002b0: 97c6 31be 22cb 993d 65d3 183e f50d da3d
000002c0: e431 0cbe ed0b 18be 7cc0 433b 392d 48bd
000002d0: 3321 abbd fb00 223e 2898 6a3c e358 8fbd
000002e0: 7193 26be 3181 e33d 530a b03d 1dd8 113d
000002f0: 1dc5 31bd 6019 103d 25b0 29be 6c0d 933d
00000300: 7ece 803d a625 b13d b726 9e3d 5bec 10be
00000310: 7dff 433c bab6 0d3e b290 57bd 98ef 663d
00000320: e8b8 593d f859 efbd 5840 50bd c960 de3c
00000330: 182d ad3d c63b b13d 8150 12be 0573 b3bd
00000340: e752 2dbe 2425 443b 6c84 f53d 3677 0b3e
00000350: bc04 f93b 3cef 0bbe 2d73 dfbd 5153 97bd
00000360: 1cf0 00bd f210 1abe ae6f 1fbe 925f acbd
00000370: 2e72 40bb d79e 2d3d e8e1 0bbd 3278 18be
00000380: a393 653d fa1a 26be 86c2 7e3c d579 debd
00000390: 8967 e0bd 0b71 243e 0bec e4bd a3c9 053e
000003a0: 7d6b 19be dedb 77bd 8004 173e 8237 d73d
000003b0: 27f0 e8bd c2df 89bc 285b ddbd 530f 16be
000003c0: 210d f83d ef20 853c f0d2 813d 71f2 02be
000003d0: 988d 663d abdf 8d3d c61b 213e 0777 35be
000003e0: 52d7 d23c 61ee 033e a08a 55bd 98ca dfbd
000003f0: 6794 063e 3935 0bbe d116 91bd 1956 033e
0.08295434 0.12600823 -0.12697496 -0.09411684 -0.0059995144 -0.055651605 -0.025499111 -0.027455913
-0.08121753 0.18509667 0.08102606 0.17264163 -0.109677635 0.14420009 -0.0035083825 -0.12033564
-0.08703223 0.121233314 0.054698307 -0.1265758 0.041870795 0.16668035 0.05644534 -0.03843873
0.05372225 -0.16393735 0.124315344 -0.06913575 -0.13646927 -0.012192899 0.001420979 -0.08073275
0.0254131 -0.049574707 0.059248444 0.011114687 -0.16318926 0.014592701 -0.0449717 -0.13569017
-0.08011998 0.046964012 0.07647957 -0.04992833 -0.11343789 0.007102387 -0.05112779 -0.03148975
-0.041651968 -0.050353914 -0.037337076 0.17214929 0.11586787 0.028957864 -0.109837525 -0.101397425
0.106364794 0.1246048 0.045593366 0.020378878 0.12459511 0.11495333 -0.060749397 0.03858819
-0.1026738 0.12176816 0.023262631 0.0040641082 -0.041555997 0.048701487 -0.13962658 0.14652745
0.12874322 -0.17689253 -0.017120179 0.03194582 -0.10700595 -0.0605319 0.13360053 0.09066112
-0.07321426 -0.114173874 -0.042449467 -0.14386804 0.0823904 -0.048493396 -0.18561488 -0.16204694
0.15530895 -0.043845158 -0.054573417 -0.12531468 -0.0077503105 0.1654659 0.11779454 -0.06562346
0.16436526 0.05733501 -0.034423463 -0.0648993 0.06553901 -0.13099825 0.17668764 -0.13052115
0.084981136 -0.10144224 0.04203469 -0.1628714 -0.078046806 0.08464365 -0.097899355 0.036793813
-0.17969556 -0.17423229 0.0105360905 0.04636224 -0.012259966 0.14849511 0.14301623 0.1383433
-0.1736066 -0.09742122 -0.0053427415 -0.037478372 -0.10752485 0.09562277 0.03399841 0.028070208
-0.08597876 -0.044289805 0.15509962 -0.10957624 0.03917357 0.11826764 0.024747426 -0.10306332
0.04367468 -0.071049035 0.02245888 -0.032657593 0.13030896 0.06863728 0.015309801 0.05084097
0.14251027 -0.13640015 0.017128138 -0.020546507 0.03664087 -0.1397864 -0.047684822 0.107318185
-0.16727762 -0.12113353 0.015174033 -0.0066620843 -0.03218191 -0.03161335 -0.04638795 0.14017256
-0.069776446 -0.09951789 0.04112752 0.028742313 -0.112431996 0.05523281 0.029422332 -0.021076107
0.17077313 0.08156535 -0.106999084 0.04415684 -0.17360912 0.07509448 0.1492439 0.10647193
-0.13690907 -0.148483 0.0029869368 -0.048871253 -0.083559416 0.15820687 0.014318503 -0.06999376
-0.16267182 0.11108626 0.08595719 0.035606492 -0.043400872 0.03518045 -0.165711 0.071802944
0.06289385 0.08649759 0.07722228 -0.14152662 0.011962769 0.13839236 -0.052628227 0.05638084
0.053154856 -0.11687082 -0.050842613 0.02714576 0.084558666 0.08653979 -0.14288522 -0.087621726
-0.16926156 0.0029929364 0.11988148 0.13619694 0.0075994413 -0.1366548 -0.1091064 -0.07388938
-0.031478986 -0.15045527 -0.15569946 -0.08416666 -0.0029364931 0.04238781 -0.034150988 -0.14889601
0.056049 -0.16221228 0.015549308 -0.10863081 -0.10957248 0.16058747 -0.11177834 0.130652
-0.1498241 -0.060512416 0.1474781 0.10508634 -0.113739304 -0.016830329 -0.10808402 -0.14654283
0.12111879 0.016251056 0.06339061 -0.12787797 0.056287378 0.06927427 0.15733251 -0.17721187
0.025737438 0.12883903 -0.052134156 -0.109273136 0.13142549 -0.13594522 -0.0708443 0.12825812

fc1.bias f4 [32]
00000000: 8404 11bd d308 ba3b 4585 36bc 092a a8bc
00000010: 505f 783c a8fc 68bb a514 42bc 17df 98bc
00000020: e2a5 4f3c 30b5 4939 6f71 fe3b 440b 893c
00000030: 0333 9e3c 1b6a 37bc aec2 8a3c 9d28 fc3b
00000040: 82e7 c0bc 4ef9 d0ba b686 173c 0fed 2abc
00000050: ff44 86bd 9459 22bb f5d4 2dbc dc69 9abb
00000060: f921 0139 3b7f 7dbd 1af0 d4bc 1fd9 adbb
00000070: 24a2 bb3b b3de 91bb c121 9fbc bf47 ccbc
-0.035404697 0.0056773215 -0.011140172 -0.020527856 0.015159443 -0.0035550985 -0.011845742 -0.018661065
0.012673827 0.00019236351 0.007764987 0.016729005 0.019311434 -0.011194731 0.016938534 0.007695271
-0.023547892 -0.0015943439 0.009248426 -0.010432496 -0.06556129 -0.002477263 -0.010609855 -0.0047123265
0.00012315054 -0.061888915 -0.025993396 -0.005305424 0.005726116 -0.0044515966 -0.019425275 -0.024936555

fc2.weight f4 [16, 32]
00000000: 5388 6c3d eb9a c03d 3f39 a7bd 355f ecbd
00000010: 3957 063e 11cc 1e3e cf45 06bd 3979 a7bd
00000020: 0a53 183d a7ff 15be c21d 823d 45f2 bb3c
00000030: e148 8bbd 4e1d 41bd bf25 d6bd a5e4 e9bd
00000040: 6cc1 f9bd 3d51 b23c 23a5 24be 4952 77bd
00000050: 8066 23be 5395 bbbd b029 8d3d 2020 8dba
00000060: b327 8a3d 5dc8 013e 6e71 773d 1918 b63d
00000070: 23f9 01be 0c31 16be 0b02 af3d 4794 46ba
00000080: c7d6 1a3e dded eb3d 7b09 1cbd 7d1e d33d
00000090: cd17 3aba e41d 0a3e 0b3b 113e f529 b1bc
000000a0: 5f9a d8bd ba39 5fbc 2f76 87bd bc31 a83d
000000b0: 7ab9 99bd 2a0b e53c ba99 9fbc ca4d fe3d
000000c0: a3f1 b83c 2220 02bd fe62 cbbd 25ab cf3d
000000d0: 27d4 15be 4a81 023e c955 143e c9de 61bd
000000e0: e735 783d 492f 01be 9f41 d13d 726e 213e
000000f0: ccbf 20be 0af2 d53d 6da9 583d 31be 24bd
00000100: 54c9 553d c7e4 e8bd bac7 00be ab06 ea3d
00000110: 6c90 c7bd 197a 47be 6506 e5bd 1d83 013d
00000120: d33d c5bd 1543 a43d 5a77 31be 0c50 c7bd
00000130: 97bd cbbc 4b19 c5bc ea9d 013b f593 dfbd
00000140: 3795 873d 0238 7bbe 5af4 03be 01fd 02be
00000150: f347 e93d a466 36be 6c52 d73d b352 8d3c
00000160: cd43 103c d084 0f3a 48f0 163e 2a35 073e
00000170: eca6 053d b8f6 1dbc 56b9 b63c 9217 82bc
00000180: 99ba cebd 6475 123d df2b d1bd 0b8e 153e
00000190: 843c d3bd fccc ad3d 8ffa 263e aa4d 3d3d
000001a0: 55ce 00be f08d b73d 9ea9 9a3d 6368 09be
000001b0: 8853 02be 0375 a4bd a6c6 c0bc a8ef 14be
000001c0: f8fe 1cbe be6c 853c 0d00 973d f25f 13be
000001d0: 9991 163e 5af1 0f3e ab04 1a3e f436 123e
000001e0: 7063 153d bab0 123e e462 a5bd d610 bd3c
000001f0: 688d afbc 8e47 193e 9483 cc3d d84e c73d
00000200: 99ed e93d 8ee5 193d df3a 7abd 1e49 5ebd
00000210: 9d60 933d e6d7 d73d 3c27 8b3d c447 8c3c
00000220: d9ba 07bd c4a2 223d 4694 d2bd f04b 35be
00000230: a6e8 b93d accf 5cbd b3ff b3bd 08c3 9c3d
00000240: c8a0 88bd a785 0d3d 4f24 263e f7b2 993d
00000250: 8718 3e3e 5eaf 64bc b809 96bd 89df 963d
00000260: 5203 34be eacc a1bd 8160 9c3d a2e6 09be
00000270: 60ff bdbd 5b9e febd d5c8 39be 7550 80bd
00000280: 7154 3e3d dd43 8bbd 1796 dcbc 11c8 c2bc
00000290: 498b 213d 1f67 dabd 03a3 0bbe d80d e83d
000002a0: 24ff 2e3e 49a1 fc3c fc14 193e 627b c9bd
000002b0: 5724 dbbd f65e 4abb 38c8 3bbe b3f8 f23c
000002c0: 2d94 b0bd 5d1b 1ebd d0c7 063d 4c0d 0a3c
000002d0: c0a0 8d3c c31f 103e 2d0f 453e c4df 1bbc
000002e0: 8363 ddbc f4a8 ed3d f835 dc3d 62b8 11be
000002f0: 41ee 2e3e 54cc 0f3e 7b5b 1bbe ba5f b73d
00000300: 7ab4 8a3d 8d1c 80bb e1fa 183e 41a9 31bd
00000310: 20b8 ec3d c91b 193e d72a 533c 3852 29be
00000320: 1488 2ebe 6241 1cbe c0c2 113e d95e 3b3d
00000330: 8c01 97bc 7958 4cbc 5eda 513d eff3 d1bd
00000340: f7f4 0fbe 3122 28be ea34 1b3e 9fa6 6e3d
00000350: da45 983d 8a42 433d 5c66 463d 9e72 043e
00000360: 2acb 693d 200b 0c3d 5162 1e3e 4e12 053d
00000370: 3672 643d cb76 ffbd 05ef 963d 35f8 17be
00000380: 37ac f2bd 166c c63d 4a69 1dbd 058e 3fbd
00000390: 44a1 0e3d 96a7 e039 3401 fabd 8af5 523d
000003a0: 0589 8dbd b787 993d 4770 8bbd e69c 19be
000003b0: ad22 a23d f6bb 31be 23b3 003c e9b9 1d3d
000003c0: c850 febc 197a 013c ca69 0e3e a3b9 8ebd
000003d0: 822e a3bc faa3 0bbe babd e0bc b737 fd3d
000003e0: 504d 313e fe76 ffbb f01d bd3d a3a1 ec3c
000003f0: 62e6 91bd fdd4 683d 8ec3 22bd cf3d d0bd
0.057747196 0.09404548 -0.08165216 -0.11541597 0.1311921 0.15507533 -0.03278142 -0.08177418
0.037188567 -0.14648305 0.06353332 0.022942672 -0.0680101 -0.047147088 -0.10456418 -0.114205636
-0.121950954 0.021767253 -0.1607862 -0.060381208 -0.1595707 -0.09159341 0.06892717 -0.001076702
0.06745853 0.12674089 0.06041091 0.08891315 -0.12692694 -0.14667147 0.085453115 -0.00075751956
0.15120994 0.11519978 -0.03809498 0.103085496 -0.00070988835 0.13487965 0.1418268 -0.021626452
-0.10576319 -0.013624603 -0.066143386 0.08212611 -0.0750608 0.027959425 -0.019482482 0.12417181
0.022576159 -0.031768925 -0.09930991 0.10140065 -0.14631711 0.12744632 0.1448585 -0.055144105
0.06059828 -0.12615694 0.10217594 0.15764788 -0.15698165 0.10446556 0.052895952 -0.040220443
0.052193955 -0.11371761 -0.1257619 0.11427053 -0.09744343 -0.1948017 -0.1118286 0.03161918
-0.09630933 0.080206074 -0.17330685 -0.097320646 -0.024870677 -0.024059912 0.0019777962 -0.109168924
0.06620257 -0.24533084 -0.12886181 -0.12791826 0.11390676 -0.17812592 0.105137676 0.017251348
0.0088052275 0.00054748077 0.14740098 0.13203874 0.032629892 -0.009641342 0.022305172 -0.01588038
-0.100941844 0.035756484 -0.10213446 0.14604966 -0.10314277 0.08486363 0.16306518 0.046216644
-0.1257871 0.08962619 0.07551883 -0.13418727 -0.12727177 -0.08030131 -0.023532223 -0.14544547
-0.15331638 0.016287204 0.073730566 -0.14392069 0.14703979 0.14056912 0.15040843 0.14278775
0.036471784 0.14325228 -0.080755025 0.023079317 -0.021429732 0.14968702 0.09986034 0.09731835
0.11422271 0.037572436 -0.0610913 -0.05426895 0.07196162 0.10539226 0.06794593 0.017124064
-0.033137176 0.039706007 -0.10282187 -0.17704749 0.09077577 -0.05390899 -0.08789005 0.07654387
-0.066712916 0.03455129 0.16224788 0.07504838 0.18564044 -0.013957826 -0.073260725 0.07366855
-0.17579392 -0.079004124 0.07635594 -0.13466886 -0.092772245 -0.12432548 -0.18143018 -0.06265346
0.04646725 -0.06800053 -0.026927037 -0.02377704 0.039439473 -0.106642 -0.13636403 0.113307655
0.17089516 0.030838626 0.14949411 -0.098379865 -0.10700291 -0.0030879355 -0.18338096 0.029659605
-0.08622012 -0.038600314 0.0329054 0.008426022 0.017288566 0.14074616 0.1924407 -0.009513799
-0.02702499 0.11604491 0.10752481 -0.14230493 0.17083074 0.14042789 -0.15171616 0.08953805
0.067727044 -0.0039096535 0.14939453 -0.043374304 0.115585566 0.14952005 0.012888632 -0.1653527
-0.17044097 -0.15259317 0.14234447 0.04574475 -0.018433355 -0.012472265 0.05123364 -0.10251605
-0.1405829 -0.16419293 0.15156904 0.05826437 0.07435198 0.04767088 0.04843746 0.12934348
0.057078518 0.034190297 0.15467192 0.03248816 0.055772983 -0.1247383 0.07369808 -0.14840777
-0.118492536 0.096885845 -0.03843049 -0.0467663 0.034821764 0.0004284947 -0.12207261 0.051503696
-0.069109 0.07496589 -0.068085246 -0.15001258 0.0791677 -0.17356858 0.0078552095 0.038507376
-0.031044379 0.0079026455 0.13907543 -0.06969001 -0.019919638 -0.13636771 -0.027434219 0.123641424
0.17314649 -0.0077961674 0.09234226 0.028885668 -0.0712402 0.056843746 -0.039737277 -0.10168039

fc2.bias f4 [16]
00000000: c4b2 0abd 18fd 5abd 42db 04be 4b0d 9ebd
00000010: 89a8 edbc 24cc b7bd 0391 bfbc 03e1 f13b
00000020: b95b 42bd 1221 b23b 2d19 4cbc 7383 d1bd
00000030: 77eb 86bd 8eb4 0fbc 05a5 1f3d f539 d9bb
-0.03386189 -0.053464025 -0.12974265 -0.07717379 -0.029011028 -0.089744836 -0.023384577 0.00738156
-0.047450755 0.005436071 -0.012457174 -0.1023015 -0.0658788 -0.008771075 0.038975734 -0.0066292235

fc3.weight f4 [1, 16]
00000000: 9289 2e3e b158 c8bd ab8a 493e e570 df3d
00000010: 2b36 dc3c 155a 613e de45 813d 98a6 173e
00000020: 33fb 823d c25a 803e 68fa f2bd ef85 123e
00000030: 268d e23d 5ff7 babc e238 1dbe 5a82 82bd
0.17044666 -0.097825415 0.19681804 0.10910205 0.026881298 0.2200702 0.06312154 0.14809644
0.06395569 0.25069243 -0.118641675 0.14308904 0.11062078 -0.022823034 -0.1535373 -0.06372519
